features.pt (torch, 304095 bytes, 4 tensors)

0.weight f4 [64, 3, 3, 3]
00000000: 498a 933e 9fb6 123d 4b1d c5be 56cc 373e
00000010: 74cd bb3e a24d 00bf b872 c7bd b6c8 ba3e
00000020: ca24 6bbe ef92 cd3e 11c5 3cbd f728 2fbf
00000030: 8c68 e33e ce46 e53e 5681 4bbf f04d e73d
00000040: 85bc fb3e 00b1 bdbe bb56 5d3e e652 edbc
00000050: 2034 cabe 488b 183e f5ec 973e 49da dbbe
00000060: 54e5 1abc c720 b23e 0090 1fbe 38a2 b4be
00000070: 9283 82be 1666 2c3f c54a 1abf e6cf b0be
00000080: 4631 4e3f 80e2 d6be 59f1 09be ab85 293f
00000090: b7f1 12bf 53b1 ccbe fd53 453f e432 60bf
000000a0: 56d2 bbbe 780d 8e3f 7ec1 04bf ee10 a4bd
000000b0: 7c3f 6c3f a892 e5bc 3c3a 97be 291b 5d3e
000000c0: ce42 3fbe 7bb2 94be 3ffb c23e 62b9 bdbd
000000d0: d8e5 9cbd aacc be3e e519 853d 42b3 84be
000000e0: 3ba3 74be b14c a43e 7753 5c3e 2ba5 51be
000000f0: 8d48 35bd 4300 643e 741e 39bd 9bf7 ed3c
00000100: 7495 f5be fe8b 0cbf 584d 093f 3f3e 983e
00000110: 03dc bebe 16d7 353e c93a d43e 3769 32bd
00000120: f1ee 563b 9c70 afbe cd99 c9be 8a43 c23e
00000130: adef 463e 2b49 85be 6f70 153e 39c5 973e
00000140: ab94 08bd d748 a2be 7834 95be e767 973e
00000150: 60c2 15bf 9ce3 0dbe 9a95 303f 45c1 44be
00000160: 8137 da3d b558 b73e e868 f2be bcf7 b4be
00000170: b7a5 af3e 0d71 27bf 2908 cfbd c3d0 503f
00000180: c8ec 75be 99a5 413e 7eb0 023f 30c3 89be
00000190: 5a29 8abe 7145 513e 2d13 d7be 89e3 e1bd
000001a0: 8673 0e3f 4bc0 71bd efa2 e13d e2b1 543e
000001b0: 1afc 52be 6021 22be 37d6 f9bd c4de b43d
000001c0: 9dc6 593e d58c 483e 3a3d 363e e5ad ac3e
000001d0: 667a 903e 247f 573d a584 8fbd b4a1 d6bc
000001e0: 902d 20be 4b94 8ebe f71d 5fbe e09b 8bbe
000001f0: 8352 cbbe 4b4d b3be 16a2 aa3d 95f4 a73d
00000200: 26f8 a03d 87a8 fd3d d294 313e d830 153e
00000210: 131d 0c3e 0460 f73d 92af df3d 40b5 c1be
00000220: f4f5 a43d 47e3 2e3f 1b76 0c3e 4bbd 4abf
00000230: 1115 553e 9311 fc3e 63eb c9bb 150e d2be
00000240: 3191 e8be a9dd dcbc da86 303f 03cc 313e
00000250: 686d 66bf 7c92 403e e145 213f c4ad ae3d
00000260: 7df6 c4be 9829 8abe 18ff d2bc 6289 d53e
00000270: 50af 863e 42d3 3ebf 51ea 303d a7fb 1f3f
00000280: 6a2c e83d 372f d9be 952a f3bd acaa 35be
00000290: f526 55be cd09 f1bd 04c9 1dbe 0cc7 2bbe
000002a0: 6d05 063d c388 17bd 5368 38bd c15c eabd
000002b0: 503a 7d3d f759 5a3d 4de4 94bd c266 4f3e
000002c0: db62 523e 5a21 a83c bfe5 7b3e 88fa 893e
000002d0: 070c 59be 42b1 663d c707 413d 0673 36be
000002e0: 7254 083e d14a 1a3e e663 2bbe 09fc be3d
000002f0: cbae 313e 7959 23be 53ef 16be 6d57 f6bd
00000300: e19c b9bd 830d 133e 1ba3 9c3d 8350 a83d
00000310: 3067 da3e 7e07 423e 7188 48be 75f7 6ebe
00000320: 0b53 39be 641c 10be dc0b 8a3c 2dd9 1d3b
00000330: f413 a13d 8d9b be3e 0dc7 543e 6b17 05be
00000340: 3671 54be 9524 19be 4676 f3bd a929 833c
00000350: 916f bfbc 7aa7 613d 34da 963e dd43 053e
00000360: eccd 343e e703 3a3f 1655 c93e d89a 22bf
00000370: 7bbf b6be 566c f23e 9da7 cf3d 2b66 16bf
00000380: 6a19 85be d8c6 343e 446c 6f3f fbfb 1b3f
00000390: 4094 47bf 8f6a f4be f60b 083f 24ab 013e
000003a0: a783 44bf c010 cbbe 1c90 5fbd 6c8e b03e
000003b0: e2fb c83c 946c c4be cf87 8cbe de4a 983e
000003c0: ad03 c73e 7952 85be 9176 acbd c32e 273e
000003d0: 46e8 c8bc 11db dbbe baa9 09bd d65c 31bf
000003e0: 523f 34bd bfea 313a c128 a03e 1987 413f
000003f0: 3b87 3d3f e114 d23e adf1 8ebe 8f92 27bb
0.2881644 0.035818692 -0.3849891 0.17949042 0.36680186 -0.5011846 -0.09738678 0.36481255
-0.22963253 0.40151164 -0.046086375 -0.6842188 0.444157 0.44780582 -0.79494226 0.11294162
0.49167266 -0.37049103 0.21615116 -0.028970193 -0.39492893 0.14896882 0.2967297 -0.42939976
-0.00945409 0.34790632 -0.15582275 -0.35280013 -0.25491005 0.6734327 -0.6027034 -0.34533614
0.80543935 -0.4196968 -0.13470973 0.66219586 -0.5740008 -0.39979038 0.7708128 -0.8757765
-0.3668391 1.109786 -0.51857746 -0.080110416 0.9228437 -0.028024033 -0.29536617 0.21592392
-0.18677828 -0.2904242 0.3808231 -0.092638746 -0.07661027 0.3726552 0.064990796 -0.25918013
-0.23890392 0.3208976 0.21516214 -0.20473163 -0.044258643 0.22265725 -0.045195058 0.029048732
-0.47965586 -0.5490111 0.5363364 0.2973499 -0.3727723 0.1775783 0.414511 -0.043557372
0.0032796229 -0.34265602 -0.39375153 0.37942153 0.19427367 -0.26032385 0.14593671 0.29642656
-0.033344906 -0.31696197 -0.29141593 0.2957146 -0.5849972 -0.13856357 0.68978274 -0.19214351
0.10655118 0.35809866 -0.47345662 -0.35345256 0.34306118 -0.65406877 -0.10108978 0.81568545
-0.24016106 0.18910827 0.51050556 -0.2690673 -0.26984674 0.20436646 -0.42006817 -0.11029727
0.55645025 -0.059021275 0.11017405 0.20770982 -0.20603982 -0.15833044 -0.12199061 0.08831552
0.21267171 0.19584973 0.17796794 0.3372642 0.28218383 0.052611485 -0.07007722 -0.026200153
-0.1564238 -0.27847514 -0.21788774 -0.2726736 -0.3971139 -0.35019907 0.08331697 0.08200947
0.078598306 0.1238566 0.17341927 0.14569414 0.13682966 0.120788604 0.10922159 -0.37833595
0.08054724 0.6831555 0.13716929 -0.7919509 0.20808817 0.49232158 -0.0061620935 -0.4102637
-0.45423272 -0.026961165 0.6895577 0.1736298 -0.9001069 0.1880588 0.6299725 0.08529237
-0.38469306 -0.2698486 -0.025756404 0.41706377 0.26305628 -0.74541104 0.04319221 0.62493366
0.11336596 -0.42418835 -0.11873356 -0.17740887 -0.20815642 -0.117694475 -0.15408713 -0.16775149
0.03272002 -0.03699566 -0.045021366 -0.11443473 0.06182319 0.053308453 -0.072701074 0.20254043
0.20545523 0.020523716 0.2459936 0.26948953 -0.21195994 0.05632139 0.047126558 -0.17817315
0.13313463 0.15067603 -0.16737327 0.09325416 0.17351834 -0.159521 -0.14739732 -0.12028394
-0.090631254 0.14360623 0.076482974 0.082184814 0.4265685 0.1894817 -0.19583298 -0.23336585
-0.18098085 -0.1407333 0.016851358 0.0024085746 0.07865134 0.3722805 0.20779057 -0.12997214
-0.20746312 -0.14955361 -0.11887793 0.016011076 -0.023368629 0.05509136 0.2946335 0.13014169
0.17656678 0.72662205 0.39322728 -0.6351752 -0.35692963 0.4734828 0.101393916 -0.58749646
-0.25995952 0.17653978 0.93524575 0.60931367 -0.77960587 -0.47737548 0.5314325 0.12662941
-0.76763386 -0.39661217 -0.054580793 0.3448366 0.02453417 -0.3836409 -0.27447364 0.2974462
0.38869992 -0.26039484 -0.08421052 0.16326432 -0.02452482 -0.42940572 -0.03360913 -0.6928228
-0.0440057 0.0006786994 0.31281093 0.7559677 0.7403447 0.41031554 -0.2791876 -0.0025569533

0.bias f4 [64]
00000000: 1d85 463e 8ac2 9b3e d7e3 3a3e 425c 8ebf
00000010: a7da 343d b1c9 8abd df8b 073e 92a6 15bf
00000020: b257 623e 7f19 55bc b73c c2be 8c9a 003e
00000030: 3657 773e df14 7f3e 9cf1 48bf 9b5c 87bf
00000040: 0808 873e 9c31 3cbe 52f6 1c3e 5902 93bf
00000050: 251c 1b3c 7d30 5dbf 3cd9 c7be 25de cebe
00000060: 3ad7 133f 0372 813e b898 ba3d 0026 1f3e
00000070: 56af 3bbe 0b03 f4be b2cc 70be 0648 8dbf
00000080: 3aaa 17bf 5d8c 963e 62b6 413e d313 d43e
00000090: f55c b4bc 6747 383e 879c 0dbf 5a23 723e
000000a0: 0a85 1e3e 23b6 dbbf 7a25 02bd f475 4a3d
000000b0: cea5 033e b874 3e3e 9528 373e c890 ef3e
000000c0: 1fc2 d7bb 3210 c2bd 5c8e bcbf 5104 43bf
000000d0: d3bb 99bf f2c2 343e 794c 4e3e 9b6f a8bd
000000e0: e5d0 143e faa7 ec3c dce7 99bf ca52 233e
000000f0: 9470 62bf f3ad f6bb 1aad 6a3e 5e1d b1bf
0.19386716 0.3042186 0.18250977 -1.1121905 0.044153836 -0.06776751 0.1323695 -0.5845729
0.22103766 -0.013006567 -0.37936947 0.12558955 0.24154362 0.24910305 -0.78493667 -1.0575136
0.26373315 -0.183783 0.15328339 -1.1485091 0.009467159 -0.8640211 -0.39032924 -0.40403858
0.57750285 0.25282297 0.0911116 0.1554184 -0.18328604 -0.47658572 -0.23515585 -1.1037605
-0.5924412 0.29403964 0.1891723 0.41421375 -0.022016982 0.17995988 -0.55316967 0.23646298
0.15480438 -1.7164959 -0.03177402 0.049428895 0.12856218 0.18599212 0.17886575 0.46790147
-0.0065844203 -0.09475745 -1.4730945 -0.7617846 -1.2010444 0.1765249 0.2014636 -0.08224412
0.14532812 0.028888691 -1.2023883 0.1594955 -0.8845303 -0.0075280606 0.22917596 -1.3837087

3.weight f4 [128, 64, 3, 3]
00000000: 38d8 f73c eea0 8fbc cc9a 14bd 3b6d 4d3c
00000010: 7269 4fbd 0bb9 43bd b8cb b9bc 0818 7abd
00000020: 8149 1abd f91e 743d 9a45 523d d576 f13b
00000030: 5fc1 e73c 7611 eebc 47f0 2fbd 6a42 313c
00000040: d1f6 51bd 61ef 23bd 8d8c 8fbb 4892 07bd
00000050: f03a 12bd 1d83 26ba 5423 41bd a9ba cebc
00000060: b198 21bc 9c15 f2bc 2898 9bbc 8c89 b03d
00000070: 6a63 773d 5e67 3a3b 8567 9f3d 4b97 ed3c
00000080: 369f b53b d1c3 603d d630 973b 6429 88bc
00000090: 5b9d 823c bc70 acbc aa95 c3bc 11ed b13c
000000a0: f4c8 56bc bc7c 83bc 4b23 b23c 8d6d b93c
000000b0: 64e0 dd3b db97 853c 855a 0a3c 7a82 7138
000000c0: e734 79bb 6873 b2bb e6a6 54bc a0df 8cbb
000000d0: 2853 c7bc 3a74 b1bc d47e 133c 19f6 4a3b
000000e0: 428b dbb8 6f5c e73c 42d5 a23c 561f 9ebb
000000f0: 276f 333c 7bec 673c 125d 8dbb fc42 1e3d
00000100: 36bf a23c 781d 3bb9 44ef 153d 4b08 dc3b
00000110: fa3d 98bc 152c af3c cbaf 353a b8a5 41bc
00000120: 2731 a93b 2715 1abd 4b65 4dbd 6dfd 24bd
00000130: e2dc 78bd a50e 65bd 8276 1fbd 7698 7cbd
00000140: 2c49 61bd 1cf8 9b3d 455c a53c e592 5abc
00000150: 06b5 e43b 1cad 6fbc 3285 ffbc 1af4 fe3b
00000160: fe22 f7bc 09bb 8cbc 855b 193c a459 9e3c
00000170: b814 d23b bff9 823c b835 323c b9f8 87bc
00000180: 1680 eb3c 43bd 8d39 95fa 8b3b 9c41 2b3c
00000190: 9a6f c7bc 4ae8 17bd 7cbc 6fbb bb73 26bd
000001a0: b710 13bd 797c a83b cbed d0bc 7ba5 2bbc
000001b0: f1f2 ef3c db9e 93bc 0184 76bd ce56 16bc
000001c0: d3ce 80bd 8c79 94bd 2bd3 28bd 4742 96bd
000001d0: 8a45 82bd 0e9d f73c 451b df3c aaa8 933b
000001e0: 011a 3c3c 1b39 94bc b3a4 60bd 9b4a ca3c
000001f0: 0907 0ebd cc9f 37bd a280 413c 98bc 56ba
00000200: 2be1 82bc 181a ae3c 9ac4 7ebc 0c73 d4bb
00000210: e702 cc3b 595d 64bc 75eb 4b3b e5e7 53bc
00000220: b095 c6bc cf7f 93bc af16 0ebc 957d abbc
00000230: c554 89bb e48b aabc 9743 7cbc 0d5f eebc
00000240: 213b e13d 9f23 a53d 11be c33c cede a73d
00000250: 272d e63c 45b9 d6bb 2705 3a3d ce04 69bb
00000260: 066d 01bc 11c4 8a3b 4d3e 1dbc 9519 853b
00000270: a017 23bb 4700 debb 9d62 a83b 010d 71bc
00000280: e773 483b 9860 b7bb 802e 17bc f498 3dbb
00000290: bb56 ca3b e451 f03c 04b8 303c 5e18 36bb
000002a0: f5a1 4b3c fcad acbb 6b3b 063c 0667 3a3d
000002b0: 6c4e 233c a3f9 05bb 1554 a13c 8e0c b03a
000002c0: f778 44ba 1f24 663c b7b3 0bbc f84f 1ebc
000002d0: da53 3b3c efcb 083a 525b 7bbc b337 dd3a
000002e0: 7557 a6bc 5d62 0ebb 825d 75bb a052 53bc
000002f0: a7fa 54bb 535f a33c cd89 773c 60c4 91bb
00000300: 4663 413c 6ab3 0d3c 17b2 09bc 22a5 e13c
00000310: 407f 8dbc 4e5b 8c3b 3e5e 073b d81d 133c
00000320: 0cd6 a03b 3b80 253c f454 763c 287b da3b
00000330: c0c6 4e3c ca37 c53b 2684 a33c d29e ba3c
00000340: c25d 533b 0423 883a d3f3 8d3b 2427 e5ba
00000350: f155 30bc bac8 fa3c 5bb5 163c 1bcb 3239
00000360: 6316 333c 4206 03bb 251d cd3b 9c64 c5bc
00000370: 64a9 d4bc 16a4 76ba 3a92 d0bc 6a02 96bc
00000380: 5d38 5d3b 287d 073d 7822 a7bc e0d3 24bd
00000390: 0f73 4abc 6fd7 33bd 3c04 33bd bb7a 06bd
000003a0: 3722 3dbd f66b 18bd 31bf 773c 5e05 8e3c
000003b0: e892 47bc bacc 773b d6ae f0bb deb4 2ebc
000003c0: 8670 03bc 1509 8b3a ef2a 0cbc 10df 0f3d
000003d0: 852f b23b df5e 19bd 0659 a33c f9c5 edbc
000003e0: 7029 0ebd b53c 8cbc 3c41 f3bc 59c3 c7bc
000003f0: a52f 23bc 7363 c9bc fef6 7cbb bd27 8d3c
0.030254468 -0.017532792 -0.03628044 0.01253825 -0.05063767 -0.047783893 -0.022680148 -0.061058074
-0.037667755 0.05959985 0.05133591 0.007368902 0.028290449 -0.02906106 -0.042953756 0.010819057
-0.051260773 -0.04002321 -0.0043807686 -0.03309849 -0.03570074 -0.0006351935 -0.047152832 -0.02523549
-0.009863065 -0.02955132 -0.018993452 0.08619985 0.060397543 0.002844296 0.07783417 0.029002806
0.005542661 0.054874245 0.004613976 -0.0166213 0.015944174 -0.02104985 -0.023875076 0.021719487
-0.013109434 -0.016050689 0.021745345 0.022635246 0.006771134 0.016307762 0.008444433 5.7580393e-05
-0.0038025917 -0.0054458864 -0.012979245 -0.004299119 -0.024331644 -0.021661866 0.009002406 0.003096944
-0.000104686726 0.028242318 0.01987708 -0.004825513 0.010951794 0.014155502 -0.0043140734 0.0386381
0.019866567 -0.00017844688 0.036605135 0.006714856 -0.01858424 0.021383325 0.0006930797 -0.011819296
0.00516333 -0.03761783 -0.05014543 -0.04028075 -0.060757525 -0.05592217 -0.038931377 -0.061668836
-0.055001423 0.076156825 0.0201856 -0.013340686 0.0069795875 -0.014628675 -0.031191442 0.007780564
-0.030168053 -0.017179029 0.009360199 0.019329853 0.0064111613 0.015988229 0.010877065 -0.016598092
0.0287476 0.00027034627 0.004271815 0.010452654 -0.024345208 -0.037086762 -0.0036580851 -0.040637713
-0.035904612 0.0051417914 -0.025504014 -0.010476465 0.029290648 -0.018020084 -0.060184482 -0.009175969
-0.062894486 -0.07249746 -0.04121701 -0.0733686 -0.0636092 0.030226257 0.027234683 0.0045061903
0.011480809 -0.018093636 -0.05484457 0.024693778 -0.034674678 -0.04483013 0.011810454 -0.0008191555
-0.01597651 0.021252677 -0.015549803 -0.006483441 0.006225932 -0.013938271 0.0031115685 -0.012933706
-0.024241298 -0.01800528 -0.0086724 -0.020933906 -0.0041910135 -0.020818658 -0.015396974 -0.029098058
0.10997606 0.08063435 0.023894342 0.081967935 0.028097702 -0.0065528476 0.04541507 -0.0035555842
-0.007899528 0.0042347987 -0.009597373 0.0040618875 -0.0024885908 -0.0067749354 0.0051387087 -0.014712573
0.0030586661 -0.0055962317 -0.009227395 -0.0028930278 0.00617489 0.029335923 0.01078606 -0.002778552
0.01242875 -0.005269764 0.008192877 0.045508407 0.009967428 -0.0020442985 0.019693414 0.0013431476
-0.0007494832 0.014046698 -0.008526734 -0.009662621 0.011433566 0.0005218377 -0.015341597 0.0016877562
-0.020305375 -0.002172611 -0.0037439768 -0.012898117 -0.0032498033 0.019942915 0.015108538 -0.0044484586
0.011803454 0.008648733 -0.008404276 0.027544562 -0.017272592 0.0042833453 0.0020655538 0.008979283
0.004908329 0.010101373 0.015034903 0.0066675134 0.012620628 0.0060186135 0.019960474 0.02278081
0.003225193 0.0010386412 0.0043320446 -0.0017482978 -0.0107626775 0.030613292 0.009198512 0.00017051066
0.01093063 -0.0019992744 0.006259578 -0.024095826 -0.025959678 -0.0009408606 -0.025460351 -0.018311698
0.003375552 0.033078343 -0.020402178 -0.040241122 -0.012356534 -0.043906625 -0.04370521 -0.03283189
-0.046175208 -0.037212335 0.015121267 0.017336544 -0.012181021 0.0037811236 -0.007345061 -0.010663239
-0.008022433 0.0010607565 -0.008555158 0.03512484 0.0054377937 -0.03744399 0.01993991 -0.029025065
-0.034707487 -0.017118791 -0.029694192 -0.024385141 -0.00996009 -0.024583554 -0.0038599367 0.017230863

3.bias f4 [128]
00000000: 4068 18bd cd92 ecbd 455b 183e 77b1 dabd
00000010: 7b6c 1d3e 24c5 9cbd b851 a3bd 1b37 59be
00000020: 6317 a73c 6910 273e abb1 8b3c 35bc 3fbd
00000030: 5a6e c33d 6700 f83e e5f8 3e3e 0f68 173e
00000040: 2cde 183f ad45 71be 35c1 863e 1fdd 003f
00000050: 9272 1e3d f2e4 123f 39e7 44be ae2a 31be
00000060: f765 7dbe 85cc 1d3f c296 efbd 467f 00be
00000070: 5a81 91bc a4a3 eb3c c502 b83d f75b 16be
00000080: 4437 4b3e b0a1 ecbd afe5 f6be deac 9a3e
00000090: e95f 9fbc 43e7 95be cc52 46be 72ee c6bd
000000a0: 980b 05be 1186 f6bd 8b67 d9bd 995a fabe
000000b0: 3c4c 4fbe 61cc 043d a708 fcbd 0803 85be
000000c0: 3a6b 873e 3797 033e 763e a13e b2f8 80bf
000000d0: 2aff f83e 9321 1a3d 33e5 063d ce5f 53bd
000000e0: cae1 303d b6e8 ddbe c3ba 9cbd 9ff1 57be
000000f0: 0a47 ad3d 7836 db3d 9783 8fbe cd8d c2be
00000100: c1a3 c0bd 73f1 d0bb ba7a e5bd 1bf8 c83d
00000110: 24ed b03d 6aee 0e3d c6c7 6ebd 4d21 2d3f
00000120: e028 a13e 974d 333e a9b0 9dbd 495f f53e
00000130: 47ad b83e d5f0 f93e e8f8 933d cf05 623e
00000140: 1ead 8b3d 7a24 2fbe 6e43 afbd b1cc 00bd
00000150: a7d5 423e 165b 0bbe 30fa d8bd e57e 983c
00000160: b0f6 d13d 0765 13be 7752 213d ecbb 2a3e
00000170: 99ed 43be d74b 4e3e 2ce0 563e 0159 8d3d
00000180: f14c 7b3d 652b c73d 6a72 1d3e c21d a33d
00000190: b8ab d13e 1c3e b73d 1987 043e dc93 f2bc
000001a0: ec5c 63bd edfa f33c 47c0 01bb 967c 533d
000001b0: ac96 d2bd aa6e 39bd 35c5 993e 7d50 67be
000001c0: 37cf 52bc bed7 ffbd d70e b8be 6984 903d
000001d0: 0d8b 133e 1446 f6bc 03d2 2f3e b991 cc3d
000001e0: 1ae6 f6bd 402d e0bc ad51 dc3d 4e1b f53c
000001f0: 3bef 283f fccf 94bd 0e72 663e 8d44 8e3e
-0.037208796 -0.115514375 0.14878567 -0.1067838 0.15373413 -0.07654789 -0.07974571 -0.21212427
0.020396894 0.16314854 0.017052492 -0.046810348 0.09542532 0.48437807 0.18649633 0.14785789
0.5971401 -0.23561735 0.2631928 0.50337404 0.03868348 0.5738059 -0.1922883 -0.17301437
-0.24745928 0.616402 -0.11698677 -0.12548551 -0.017761875 0.028764553 0.08984903 -0.1468352
0.19845301 -0.11554277 -0.4822211 0.30210012 -0.019454913 -0.29278 -0.19367522 -0.097134486
-0.12992704 -0.1203729 -0.106154524 -0.48897246 -0.20243925 0.032421473 -0.12306338 -0.25978875
0.26448995 0.12850653 0.31492966 -1.0075896 0.48632175 0.037629675 0.032933425 -0.05160504
0.04318408 -0.43341607 -0.076528095 -0.21088265 0.08460815 0.107037485 -0.28030083 -0.3799881
-0.094062336 -0.0063764392 -0.11205049 0.09812947 0.08638981 0.034895338 -0.058295988 0.6762894
0.31476498 0.17510067 -0.07699711 0.4792426 0.360697 0.48816553 0.072252095 0.22072528
0.06820129 -0.17103758 -0.08557783 -0.03144521 0.19026814 -0.13608965 -0.105945945 0.018615196
0.1025213 -0.14394008 0.039385285 0.16673249 -0.19133605 0.20146118 0.20983952 0.06901742
0.061352674 0.09725074 0.15375677 0.0796466 0.40951324 0.08947393 0.1294216 -0.02961152
-0.05550854 0.029782737 -0.0019798444 0.051632486 -0.10282645 -0.045271553 0.3003327 -0.22589298
-0.012866787 -0.124923214 -0.35948822 0.07056505 0.14408512 -0.030062713 0.17169957 0.09988732
-0.12055607 -0.027365327 0.10757766 0.029920246 0.65990037 -0.07266232 0.22504446 0.27786675
